test_int8.tflite (tflite, 237368 bytes, 33 tensors)

fuse_attr_192 i1 [3, 3, 3, 8] scale=0.0017113005 zero_point=0
000000 fa 0f 0d fa a4 e8 02 fb 39 f6 f3 42 27 f6 f3 c7
       -0.0102678025 0.025669508 0.022246907 -0.0102678025 -0.15743965 -0.04107121 0.003422601 -0.008556502 0.097544126 -0.017113004 -0.022246907 0.11294583 0.06674072 -0.017113004 -0.022246907 -0.097544126
000010 13 fd 08 e9 ea 31 ed f2 c9 11 f0 e9 2d e5 3c 01
       0.03251471 -0.0051339013 0.013690404 -0.039359912 -0.03764861 0.08385372 -0.03251471 -0.023958206 -0.09412152 0.029092107 -0.027380807 -0.039359912 0.07700852 -0.04620511 0.10267803 0.0017113005
000020 08 32 a2 3a ea f4 d0 06 e5 2d e6 05 15 e9 e5 1d
       0.013690404 0.08556502 -0.16086224 0.09925543 -0.03764861 -0.020535605 -0.08214242 0.0102678025 -0.04620511 0.07700852 -0.044493813 0.008556502 0.03593731 -0.039359912 -0.04620511 0.049627714
000030 e8 e7 fa c3 c2 16 09 da fc ee fc fd 26 de fd cc
       -0.04107121 -0.04278251 -0.0102678025 -0.104389325 -0.10610063 0.03764861 0.015401704 -0.06502942 -0.006845202 -0.030803408 -0.006845202 -0.0051339013 0.06502942 -0.058184214 -0.0051339013 -0.088987626
000040 1f f1 cc bf ab 09 00 fb 01 e2 17 c3 da 17 0e 25
       0.053050313 -0.025669508 -0.088987626 -0.11123453 -0.14546055 0.015401704 0.0 -0.008556502 0.0017113005 -0.051339015 0.039359912 -0.104389325 -0.06502942 0.039359912 0.023958206 0.06331812
000050 20 06 f6 32 fa 03 01 d8 0e 00 ee c3 c7 28 d8 ec
       0.054761615 0.0102678025 -0.017113004 0.08556502 -0.0102678025 0.0051339013 0.0017113005 -0.068452016 0.023958206 0.0 -0.030803408 -0.104389325 -0.097544126 0.068452016 -0.068452016 -0.034226008
000060 d6 eb fa ed 03 16 fa 01 12 34 9d 0e e6 14 ec f6
       -0.07187462 -0.03593731 -0.0102678025 -0.03251471 0.0051339013 0.03764861 -0.0102678025 0.0017113005 0.030803408 0.088987626 -0.16941875 0.023958206 -0.044493813 0.034226008 -0.034226008 -0.017113004
000070 d7 29 f4 02 0b 18 f3 f4 fb 0c e9 ce ca 06 22 d8
       -0.07016332 0.07016332 -0.020535605 0.003422601 0.018824305 0.04107121 -0.022246907 -0.020535605 -0.008556502 0.020535605 -0.039359912 -0.08556502 -0.09241022 0.0102678025 0.058184214 -0.068452016
000080 f8 10 f9 12 f9 c5 18 f8 14 f4 e5 ba bb 07 0a fb
       -0.013690404 0.027380807 -0.011979103 0.030803408 -0.011979103 -0.10096673 0.04107121 -0.013690404 0.034226008 -0.020535605 -0.04620511 -0.11979103 -0.11807973 0.011979103 0.017113004 -0.008556502
000090 f5 32 15 b2 fb 2d 2e 0b 1c ea ea 30 0c c0 15 26
       -0.018824305 0.08556502 0.03593731 -0.13348144 -0.008556502 0.07700852 0.078719825 0.018824305 0.047916412 -0.03764861 -0.03764861 0.08214242 0.020535605 -0.10952323 0.03593731 0.06502942
0000a0 f8 df e3 d9 c6 13 e2 24 e2 0b 0b f6 13 00 e2 f0
       -0.013690404 -0.056472916 -0.049627714 -0.06674072 -0.09925543 0.03251471 -0.051339015 0.061606817 -0.051339015 0.018824305 0.018824305 -0.017113004 0.03251471 0.0 -0.051339015 -0.027380807
0000b0 e7 e6 80 4e df fd 12 11 e0 e6 e3 24 25 e8 0d 17
       -0.04278251 -0.044493813 -0.21904646 0.13348144 -0.056472916 -0.0051339013 0.030803408 0.029092107 -0.054761615 -0.044493813 -0.049627714 0.061606817 0.06331812 -0.04107121 0.022246907 0.039359912
0000c0 e9 f3 d3 e2 be fa 2a f8 14 dc ee 1e 16 b2 3c b6
       -0.039359912 -0.022246907 -0.07700852 -0.051339015 -0.11294583 -0.0102678025 0.07187462 -0.013690404 0.034226008 -0.061606817 -0.030803408 0.051339015 0.03764861 -0.13348144 0.10267803 -0.12663624
0000d0 f6 c0 e8 ea a2 02 32 0c
       -0.017113004 -0.10952323 -0.04107121 -0.03764861 -0.16086224 0.003422601 0.08556502 0.020535605

fuse_attr_176 i1 [8, 3, 3, 32] scale=0.0008325108 zero_point=0
000000 ac e4 94 21 ad db 4a c2 c4 95 f5 4e da 3d df af
       -0.06993091 -0.023310304 -0.08991117 0.027472857 -0.0690984 -0.0308029 0.0616058 -0.05161567 -0.049950648 -0.08907866 -0.009157619 0.06493584 -0.03163541 0.05078316 -0.027472857 -0.06743338
000010 b8 38 42 d8 96 15 16 c3 e5 4e c6 cd a1 f3 bd 1b
       -0.059940778 0.046620607 0.054945715 -0.033300433 -0.088246144 0.017482728 0.018315239 -0.05078316 -0.022477793 0.06493584 -0.048285626 -0.042458054 -0.07908853 -0.010822641 -0.055778224 0.022477793
000020 22 54 ab b9 a4 6a e3 cb fa 29 a8 c2 34 ec 04 4f
       0.028305368 0.06993091 -0.07076342 -0.05910827 -0.07659099 0.088246144 -0.024142813 -0.044123072 -0.004995065 0.034132943 -0.073260956 -0.05161567 0.043290563 -0.016650217 0.0033300433 0.06576835
000030 c7 29 a6 3f 0f 66 26 37 c7 65 51 66 e9 0f 1a 15
       -0.047453117 0.034132943 -0.074925974 0.052448183 0.012487662 0.08491611 0.03163541 0.045788094 -0.047453117 0.084083594 0.06743338 0.08491611 -0.019147748 0.012487662 0.021645281 0.017482728
000040 46 09 c4 5f d6 b6 fa 3f cf 18 e1 cc fd aa 40 11
       0.05827576 0.007492597 -0.049950648 0.07908853 -0.034965456 -0.0616058 -0.004995065 0.052448183 -0.04079303 0.01998026 -0.025807835 -0.043290563 -0.0024975324 -0.07159593 0.053280693 0.014152684
000050 2a 0c af d2 0b 4e 63 12 25 17 d2 be a3 bb 24 28
       0.034965456 0.00999013 -0.06743338 -0.038295496 0.009157619 0.06493584 0.08241857 0.014985194 0.0308029 0.019147748 -0.038295496 -0.054945715 -0.077423505 -0.057443246 0.029970389 0.033300433
000060 11 e6 ee a7 93 ce 2c 23 49 c4 4a 3b 15 90 4e 21
       0.014152684 -0.021645281 -0.014985194 -0.07409346 -0.090743676 -0.04162554 0.036630478 0.02913788 0.06077329 -0.049950648 0.0616058 0.04911814 0.017482728 -0.093241215 0.06493584 0.027472857
000070 1b 38 c3 28 e9 06 36 a4 e9 dc e3 94 e7 1d 32 40
       0.022477793 0.046620607 -0.05078316 0.033300433 -0.019147748 0.004995065 0.044955585 -0.07659099 -0.019147748 -0.029970389 -0.024142813 -0.08991117 -0.02081277 0.024142813 0.04162554 0.053280693
000080 ad ed bc 20 af 4a 3b 55 de 46 3d a2 c2 a5 27 c4
       -0.0690984 -0.015817706 -0.056610737 0.026640346 -0.06743338 0.0616058 0.04911814 0.07076342 -0.028305368 0.05827576 0.05078316 -0.07825602 -0.05161567 -0.07575849 0.03246792 -0.049950648
000090 24 d3 c7 dc 3e aa 55 c8 c8 54 00 b0 45 12 30 dc
       0.029970389 -0.037462987 -0.047453117 -0.029970389 0.05161567 -0.07159593 0.07076342 -0.046620607 -0.046620607 0.06993091 0.0 -0.06660087 0.057443246 0.014985194 0.03996052 -0.029970389
0000a0 b4 3b 33 d5 f9 03 20 d3 9c 55 f2 f7 4a e5 17 e1
       -0.06327082 0.04911814 0.042458054 -0.035797965 -0.005827576 0.0024975324 0.026640346 -0.037462987 -0.08325108 0.07076342 -0.011655152 -0.007492597 0.0616058 -0.022477793 0.019147748 -0.025807835
0000b0 ce 3d e4 0b e9 d0 2d 21 96 f7 cf 28 9b c5 03 df
       -0.04162554 0.05078316 -0.023310304 0.009157619 -0.019147748 -0.03996052 0.037462987 0.027472857 -0.088246144 -0.007492597 -0.04079303 0.033300433 -0.084083594 -0.04911814 0.0024975324 -0.027472857
0000c0 37 b2 30 11 4f 2d bf 05 09 4c eb d0 ac 90 ae f0
       0.045788094 -0.06493584 0.03996052 0.014152684 0.06576835 0.037462987 -0.0541132 0.004162554 0.007492597 0.06327082 -0.017482728 -0.03996052 -0.06993091 -0.093241215 -0.068265885 -0.013320173
0000d0 cd 21 2b 38 27 a6 00 0b 32 d1 dd 0c 49 17 1d fa
       -0.042458054 0.027472857 0.035797965 0.046620607 0.03246792 -0.074925974 0.0 0.009157619 0.04162554 -0.03912801 -0.02913788 0.00999013 0.06077329 0.019147748 0.024142813 -0.004995065
0000e0 c1 c9 2b a0 fa 23 f6 37 a9 35 0f ce 25 c5 c6 ad
       -0.052448183 -0.045788094 0.035797965 -0.07992104 -0.004995065 0.02913788 -0.008325108 0.045788094 -0.07242844 0.044123072 0.012487662 -0.04162554 0.0308029 -0.04911814 -0.048285626 -0.0690984
0000f0 42 d3 c1 fd 46 e2 ef 33 2c c4 12 52 d7 aa 64 21
       0.054945715 -0.037462987 -0.052448183 -0.0024975324 0.05827576 -0.024975324 -0.014152684 0.042458054 0.036630478 -0.049950648 0.014985194 0.068265885 -0.034132943 -0.07159593 0.08325108 0.027472857

fuse_attr_178 i1 [8, 3, 3, 8] scale=0.015985956 zero_point=0
000000 f6 aa 54 5c b1 ed 21 55 f9 ea 9c d6 06 45 00 43
       -0.15985957 -1.3747922 1.3428203 1.470708 -1.2628906 -0.30373317 0.5275366 1.3588063 -0.11190169 -0.35169104 -1.5985956 -0.67141014 0.095915735 1.103031 0.0 1.0710591
000010 20 34 d3 1f c6 96 a2 da 72 4b 4b fa a3 5a b8 dc
       0.5115506 0.83126974 -0.71936804 0.49556464 -0.9271855 -1.6945114 -1.50268 -0.60746634 1.822399 1.1989467 1.1989467 -0.095915735 -1.486694 1.4387361 -1.1509888 -0.5754944
000020 14 f3 5a d7 59 cc 99 5e 59 3a 45 94 59 f6 1c 53
       0.31971914 -0.20781744 1.4387361 -0.65542424 1.4227501 -0.83126974 -1.6465535 1.50268 1.4227501 0.9271855 1.103031 -1.7264833 1.4227501 -0.15985957 0.44760677 1.3268344
000030 d7 34 d3 de 17 0f 02 f4 25 5b 98 4d 38 fc f4 ef
       -0.65542424 0.83126974 -0.71936804 -0.54352254 0.367677 0.23978935 0.031971913 -0.19183147 0.5914804 1.454722 -1.6625395 1.2309186 0.89521354 -0.063943826 -0.19183147 -0.27176127
000040 f9 40 ba 21 b8 33 bc 44 ff be 26 48 3c 0f 1c d0
       -0.11190169 1.0231012 -1.119017 0.5275366 -1.1509888 0.8152838 -1.0870451 1.0870451 -0.015985956 -1.0550731 0.60746634 1.1509888 0.9591574 0.23978935 0.44760677 -0.7673259
000050 39 0e 27 fc bc 1c f2 ff 3f e7 d7 2a 30 e2 d5 b7
       0.9111995 0.22380339 0.6234523 -0.063943826 -1.0870451 0.44760677 -0.22380339 -0.015985956 1.0071152 -0.3996489 -0.65542424 0.67141014 0.7673259 -0.4795787 -0.6873961 -1.1669748
000060 f1 0c d2 ae f3 33 48 b9 e2 3e 39 36 47 c5 50 c5
       -0.23978935 0.19183147 -0.735354 -1.3108485 -0.20781744 0.8152838 1.1509888 -1.1350029 -0.4795787 0.9911293 0.9111995 0.8632417 1.1350029 -0.94317144 1.2788765 -0.94317144
000070 b7 2a 1a bb 43 55 05 e9 2e cd ca 3e bf ea 59 17
       -1.1669748 0.67141014 0.41563487 -1.103031 1.0710591 1.3588063 0.079929784 -0.367677 0.735354 -0.8152838 -0.8632417 0.9911293 -1.0390872 -0.35169104 1.4227501 0.367677
000080 de aa e7 c3 f3 c0 b2 0a 0c 32 01 4a c3 05 0f c2
       -0.54352254 -1.3747922 -0.3996489 -0.9751433 -0.20781744 -1.0231012 -1.2469046 0.15985957 0.19183147 0.7992978 0.015985956 1.1829607 -0.9751433 0.079929784 0.23978935 -0.9911293
000090 5a dd e7 30 e9 06 35 a5 3a 0b b3 aa 00 22 e9 a7
       1.4387361 -0.5595085 -0.3996489 0.7673259 -0.367677 0.095915735 0.8472557 -1.454722 0.9271855 0.17584552 -1.2309186 -1.3747922 0.0 0.54352254 -0.367677 -1.4227501
0000a0 a0 e8 37 99 60 42 08 23 ea 3d 23 e0 43 3f 1b 0e
       -1.5346518 -0.38366294 0.8792276 -1.6465535 1.5346518 1.0550731 0.12788765 0.5595085 -0.35169104 0.9751433 0.5595085 -0.5115506 1.0710591 1.0071152 0.43162084 0.22380339
0000b0 10 28 eb 64 61 b9 25 5d e1 a0 ae 37 48 a7 f5 99
       0.2557753 0.6394383 -0.33570507 1.5985956 1.5506377 -1.1350029 0.5914804 1.486694 -0.49556464 -1.5346518 -1.3108485 0.8792276 1.1509888 -1.4227501 -0.17584552 -1.6465535
0000c0 b1 38 9a 3d d5 21 d9 18 19 e4 10 51 34 9b 4b be
       -1.2628906 0.89521354 -1.6305676 0.9751433 -0.6873961 0.5275366 -0.6234523 0.38366294 0.3996489 -0.44760677 0.2557753 1.2948625 0.83126974 -1.6145816 1.1989467 -1.0550731
0000d0 d9 ab 44 61 34 d1 39 a1 22 2f 03 12 2a d5 2f 14
       -0.6234523 -1.3588063 1.0870451 1.5506377 0.83126974 -0.75134 0.9111995 -1.5186659 0.54352254 0.75134 0.047957867 0.2877472 0.67141014 -0.6873961 0.75134 0.31971914
0000e0 2f ea db 35 e1 35 dd ce f0 d9 0b dc d8 34 32 31
       0.75134 -0.35169104 -0.5914804 0.8472557 -0.49556464 0.8472557 -0.5595085 -0.7992978 -0.2557753 -0.6234523 0.17584552 -0.5754944 -0.6394383 0.83126974 0.7992978 0.78331184
0000f0 e2 2e 31 c9 ec 0d 00 d3 2c dc c9 10 d0 03 04 00
       -0.4795787 0.735354 0.78331184 -0.8792276 -0.31971914 0.20781744 0.0 -0.71936804 0.7033821 -0.5754944 -0.8792276 0.2557753 -0.7673259 0.047957867 0.063943826 0.0

fuse_attr_172 i1 [3, 3, 3, 3] scale=0.0027772207 zero_point=0
000000 fb e8 d5 d8 de b1 fb d6 e0 14 2b e8 1d 00 80 1f
       -0.013886103 -0.0666533 -0.11942049 -0.11108883 -0.0944255 -0.21940044 -0.013886103 -0.116643265 -0.08887106 0.055544414 0.11942049 -0.0666533 0.0805394 0.0 -0.35548425 0.08609384
000010 0b 36 ee f1 0b 0c c9 a9 f7 17 f6 ea fe 21 eb fe
       0.030549427 0.14996992 -0.049989972 -0.041658312 0.030549427 0.03332665 -0.15274714 -0.2416182 -0.024994986 0.06387608 -0.027772207 -0.061098855 -0.0055544414 0.09164828 -0.058321632 -0.0055544414
000020 d0 ea fd f3 e0 fc 13 cf 6e ed fa 17 07 27 06 df
       -0.1333066 -0.061098855 -0.008331662 -0.036103867 -0.08887106 -0.011108883 0.052767195 -0.13608381 0.30549428 -0.052767195 -0.016663324 0.06387608 0.019440545 0.10831161 0.016663324 -0.09164828
000030 a7 16 04 0e f5 06 cf d1 cb d0 bd 1e f9 fa 0f 1d
       -0.24717264 0.061098855 0.011108883 0.03888109 -0.030549427 0.016663324 -0.13608381 -0.13052937 -0.1471927 -0.1333066 -0.18607378 0.083316624 -0.019440545 -0.016663324 0.041658312 0.0805394
000040 40 d8 8d a5 01 da 16 0b f6 05 07 b5 ee cf 16 f0
       0.17774212 -0.11108883 -0.31938037 -0.2527271 0.0027772207 -0.10553439 0.061098855 0.030549427 -0.027772207 0.013886103 0.019440545 -0.20829155 -0.049989972 -0.13608381 0.061098855 -0.04443553
000050 e5
       -0.07498496

fuse_attr_186 i1 [3, 3, 3, 8] scale=0.00093397836 zero_point=0
000000 35 3b e7 1b cb 09 a6 ca 18 4d 28 01 bd 07 b4 c3
       0.049500853 0.05510472 -0.023349458 0.025217416 -0.049500853 0.008405806 -0.084058054 -0.05043483 0.022415482 0.071916334 0.037359133 0.00093397836 -0.06257655 0.0065378486 -0.07098235 -0.05697268
000010 c5 a4 3d 04 35 e1 a5 19 d2 1b 07 ee f5 ba 8e c7
       -0.05510472 -0.08592601 0.05697268 0.0037359134 0.049500853 -0.028953329 -0.08499203 0.023349458 -0.042963006 0.025217416 0.0065378486 -0.016811611 -0.010273762 -0.06537849 -0.106473535 -0.053236768
000020 46 e4 07 6e dd e6 ce d4 09 f2 fd b0 d0 d5 8b dd
       0.06537849 -0.026151394 0.0065378486 0.10273762 -0.032689244 -0.024283437 -0.046698917 -0.04109505 0.008405806 -0.013075697 -0.0028019352 -0.07471827 -0.044830963 -0.04016107 -0.10927547 -0.032689244
000030 fa e1 02 f2 b1 d9 ef 07 f6 ab f1 31 c1 bd b8 d9
       -0.0056038704 -0.028953329 0.0018679567 -0.013075697 -0.07378429 -0.036425155 -0.015877632 0.0065378486 -0.009339783 -0.079388164 -0.014009675 0.045764938 -0.058840636 -0.06257655 -0.067246445 -0.036425155
000040 05 e9 09 c7 bb 0e a4 d2 0c ca 04 1d fd f3 fe d5
       0.0046698917 -0.021481503 0.008405806 -0.053236768 -0.064444505 0.013075697 -0.08592601 -0.042963006 0.011207741 -0.05043483 0.0037359134 0.027085373 -0.0028019352 -0.0121417185 -0.0018679567 -0.04016107
000050 21 11 28 2b b8 ff a8 d2 21 e3 c1 fb 11 e5 c9 d5
       0.030821286 0.015877632 0.037359133 0.04016107 -0.067246445 -0.00093397836 -0.0821901 -0.042963006 0.030821286 -0.027085373 -0.058840636 -0.0046698917 0.015877632 -0.025217416 -0.05136881 -0.04016107
000060 ed e7 d0 32 d7 f3 80 a9 fc cf e6 f3 e3 eb f6 1d
       -0.017745588 -0.023349458 -0.044830963 0.046698917 -0.038293112 -0.0121417185 -0.11954923 -0.081256114 -0.0037359134 -0.045764938 -0.024283437 -0.0121417185 -0.027085373 -0.019613545 -0.009339783 0.027085373
000070 25 fc b7 e8 c6 de 95 f2 f4 0a e5 05 09 e2 b8 f7
       0.0345572 -0.0037359134 -0.06818042 -0.022415482 -0.054170746 -0.031755265 -0.09993568 -0.013075697 -0.011207741 0.009339783 -0.025217416 0.0046698917 0.008405806 -0.02801935 -0.067246445 -0.008405806
000080 19 dd be e7 e7 c8 c1 11 c8 eb 15 00 d8 da a8 e4
       0.023349458 -0.032689244 -0.061642572 -0.023349458 -0.023349458 -0.05230279 -0.058840636 0.015877632 -0.05230279 -0.019613545 0.019613545 0.0 -0.037359133 -0.035491176 -0.0821901 -0.026151394
000090 2d fb f4 c8 08 b4 fe d6 14 04 1a c2 ef d6 06 b4
       0.042029027 -0.0046698917 -0.011207741 -0.05230279 0.007471827 -0.07098235 -0.0018679567 -0.03922709 0.018679567 0.0037359134 0.024283437 -0.057906657 -0.015877632 -0.03922709 0.0056038704 -0.07098235
0000a0 ec 00 1b ed 05 e0 ff 23 ed f9 fd a0 11 c9 fc da
       -0.018679567 0.0 0.025217416 -0.017745588 0.0046698917 -0.029887307 -0.00093397836 0.032689244 -0.017745588 -0.0065378486 -0.0028019352 -0.089661926 0.015877632 -0.05136881 -0.0037359134 -0.035491176
0000b0 36 06 0f e3 e8 e0 09 e4 0b 05 05 04 00 bd fe 0e
       0.05043483 0.0056038704 0.014009675 -0.027085373 -0.022415482 -0.029887307 0.008405806 -0.026151394 0.010273762 0.0046698917 0.0046698917 0.0037359134 0.0 -0.06257655 -0.0018679567 0.013075697
0000c0 fc fc 04 f3 0d cd fc e5 0a 04 f9 dd f5 de 04 06
       -0.0037359134 -0.0037359134 0.0037359134 -0.0121417185 0.0121417185 -0.047632895 -0.0037359134 -0.025217416 0.009339783 0.0037359134 -0.0065378486 -0.032689244 -0.010273762 -0.031755265 0.0037359134 0.0056038704
0000d0 00 05 f7 fa fc cd 01 00
       0.0 0.0046698917 -0.008405806 -0.0056038704 -0.0037359134 -0.047632895 0.00093397836 0.0

fuse_attr_189 i1 [8, 3, 3, 8] scale=0.005004648 zero_point=0
000000 0b f4 25 e8 20 37 3c 1b 16 15 d6 17 fa c8 f5 3f
       0.05505113 -0.060055777 0.18517198 -0.120111555 0.16014874 0.27525565 0.3002789 0.1351255 0.11010226 0.10509761 -0.21019521 0.11510691 -0.030027889 -0.2802603 -0.05505113 0.31529284
000010 37 11 33 2a d7 30 24 ce be e0 a2 fd d5 29 cc d1
       0.27525565 0.085079014 0.25523704 0.21019521 -0.20519057 0.24022311 0.18016733 -0.2502324 -0.33030677 -0.16014874 -0.47043693 -0.015013944 -0.21519987 0.20519057 -0.2602417 -0.23521847
000020 0c ce 03 a1 f1 12 11 e8 ca f0 e9 fb 24 e3 16 29
       0.060055777 -0.2502324 0.015013944 -0.47544158 -0.075069726 0.090083666 0.085079014 -0.120111555 -0.270251 -0.08007437 -0.11510691 -0.02502324 0.18016733 -0.14513479 0.11010226 0.20519057
000030 2f 20 03 f1 15 0b 47 fb c5 29 ed 17 b2 80 35 d7
       0.23521847 0.16014874 0.015013944 -0.075069726 0.10509761 0.05505113 0.35533002 -0.02502324 -0.29527423 0.20519057 -0.09508832 0.11510691 -0.39036256 -0.64059496 0.26524636 -0.20519057
000040 f8 2c ef d2 0a 0a e2 c2 bf 1c e3 fa 1a 23 04 e4
       -0.040037185 0.22020452 -0.085079014 -0.23021382 0.05004648 0.05004648 -0.15013945 -0.3102882 -0.32530212 0.14013015 -0.14513479 -0.030027889 0.13012084 0.17516269 0.020018592 -0.14013015
000050 cd 37 04 d1 da 19 08 0a e7 05 eb 0f f8 15 ee 2e
       -0.25523704 0.27525565 0.020018592 -0.23521847 -0.19017664 0.1251162 0.040037185 0.05004648 -0.1251162 0.02502324 -0.10509761 0.075069726 -0.040037185 0.10509761 -0.090083666 0.23021382
000060 f0 fa 11 e4 cc 0c 28 e8 13 be 0e 1e 0c 47 17 2d
       -0.08007437 -0.030027889 0.085079014 -0.14013015 -0.2602417 0.060055777 0.20018592 -0.120111555 0.09508832 -0.33030677 0.07006507 0.15013945 0.060055777 0.35533002 0.11510691 0.22520916
000070 39 05 cf e8 25 13 7e 2c cf 07 f8 d4 b5 92 f0 df
       0.28526494 0.02502324 -0.24522775 -0.120111555 0.18517198 0.09508832 0.6305857 0.22020452 -0.24522775 0.035032537 -0.040037185 -0.22020452 -0.3753486 -0.5505113 -0.08007437 -0.16515338
000080 cb fb 11 21 07 ed e6 10 15 00 eb 34 ff 2f f6 26
       -0.26524636 -0.02502324 0.085079014 0.16515338 0.035032537 -0.09508832 -0.13012084 0.08007437 0.10509761 0.0 -0.10509761 0.2602417 -0.005004648 0.23521847 -0.05004648 0.19017664
000090 0b f9 06 1c d7 b9 1c 1a c6 db 37 09 22 0d 39 d0
       0.05505113 -0.035032537 0.030027889 0.14013015 -0.20519057 -0.35533002 0.14013015 0.13012084 -0.29026958 -0.18517198 0.27525565 0.045041833 0.17015803 0.06506042 0.28526494 -0.24022311
0000a0 01 fd 2d f0 d7 e8 e2 3e d3 d9 fe e8 3a 4e ef 17
       0.005004648 -0.015013944 0.22520916 -0.08007437 -0.20519057 -0.120111555 -0.15013945 0.3102882 -0.22520916 -0.19518128 -0.010009296 -0.120111555 0.29026958 0.39036256 -0.085079014 0.11510691
0000b0 15 11 de 08 52 fe bc d6 24 e7 31 2b 0d 02 32 2f
       0.10509761 0.085079014 -0.17015803 0.040037185 0.41038114 -0.010009296 -0.34031606 -0.21019521 0.18016733 -0.1251162 0.24522775 0.21519987 0.06506042 0.010009296 0.2502324 0.23521847
0000c0 56 00 2f d1 dd 07 c6 cc de 0b 26 f2 07 27 ed d3
       0.43039975 0.0 0.23521847 -0.23521847 -0.17516269 0.035032537 -0.29026958 -0.2602417 -0.17015803 0.05505113 0.19017664 -0.07006507 0.035032537 0.19518128 -0.09508832 -0.22520916
0000d0 12 2a c5 db e7 cf cf e6 c4 d1 1e 55 ea d6 dc 1e
       0.090083666 0.21019521 -0.29527423 -0.18517198 -0.1251162 -0.24522775 -0.24522775 -0.13012084 -0.3002789 -0.23521847 0.15013945 0.4253951 -0.11010226 -0.21019521 -0.18016733 0.15013945
0000e0 2b 1c 39 11 ea d4 de 25 a8 3f 12 1b 12 de 1a 3c
       0.21519987 0.14013015 0.28526494 0.085079014 -0.11010226 -0.22020452 -0.17015803 0.18517198 -0.44040903 0.31529284 0.090083666 0.1351255 0.090083666 -0.17015803 0.13012084 0.3002789
0000f0 01 0e f6 d8 20 1b 07 db ae 0c 41 a8 0a e2 2c d1
       0.005004648 0.07006507 -0.05004648 -0.20018592 0.16014874 0.1351255 0.035032537 -0.18517198 -0.41038114 0.060055777 0.32530212 -0.44040903 0.05004648 -0.15013945 0.22020452 -0.23521847

fuse_attr_187 i1 [3, 3, 3, 3] scale=0.0040532253 zero_point=0
000000 bd fd 28 5c dc 0d f3 26 f6 f9 e4 d6 34 c4 38 17
       -0.2715661 -0.012159675 0.16212901 0.37289673 -0.1459161 0.05269193 -0.05269193 0.15402256 -0.040532254 -0.028372576 -0.113490306 -0.17023546 0.21076772 -0.24319352 0.22698061 0.09322418
000010 f3 f5 14 fa 14 00 fb 18 f9 f4 12 d6 df 10 5a 0b
       -0.05269193 -0.044585478 0.08106451 -0.02431935 0.08106451 0.0 -0.020266127 0.0972774 -0.028372576 -0.0486387 0.07295805 -0.17023546 -0.13375643 0.064851604 0.36479026 0.044585478
000020 2c ec 14 da c4 f3 e6 7f 27 3f 1d 08 0c 23 f6 1d
       0.17834191 -0.08106451 0.08106451 -0.15402256 -0.24319352 -0.05269193 -0.10538386 0.5147596 0.15807578 0.25535318 0.11754353 0.032425802 0.0486387 0.14186288 -0.040532254 0.11754353
000030 03 f7 16 fd ec 16 f0 fd e9 0b 35 10 13 d9 fc f7
       0.012159675 -0.036479026 0.089170955 -0.012159675 -0.08106451 0.089170955 -0.064851604 -0.012159675 -0.09322418 0.044585478 0.21482094 0.064851604 0.07701128 -0.15807578 -0.016212901 -0.036479026
000040 e9 19 d1 c9 69 f7 21 fb 02 fd 03 f4 fa 07 f7 fa
       -0.09322418 0.10133063 -0.19050159 -0.22292739 0.42558867 -0.036479026 0.13375643 -0.020266127 0.008106451 -0.012159675 0.012159675 -0.0486387 -0.02431935 0.028372576 -0.036479026 -0.02431935
000050 01
       0.0040532253

852_attr i1 [64, 32] scale=0.0019669211 zero_point=0
000000 af b6 4f aa d3 29 e2 4a f1 f0 c7 fa f4 04 31 32
       -0.15932061 -0.14555216 0.15538678 -0.16915523 -0.08851145 0.080643766 -0.059007633 0.14555216 -0.029503817 -0.03147074 -0.112114504 -0.011801527 -0.023603054 0.007867685 0.09637914 0.098346055
000010 3d e0 22 3c e6 45 1e c6 1c b7 35 08 2f 19 54 fd
       0.11998219 -0.06294148 0.066875316 0.11801527 -0.05113995 0.13571756 0.059007633 -0.11408143 0.05507379 -0.14358525 0.10424682 0.01573537 0.09244529 0.049173027 0.16522138 -0.0059007634
000020 c1 a3 16 d3 11 f4 01 f6 db 05 36 bd 1c da 1b 26
       -0.12391603 -0.18292366 0.043272264 -0.08851145 0.033437658 -0.023603054 0.0019669211 -0.019669212 -0.07277608 0.009834606 0.10621374 -0.13178372 0.05507379 -0.074743 0.05310687 0.074743
000030 4f 29 19 01 d4 15 2e e4 c2 e3 c1 da 0b 4f dd d6
       0.15538678 0.080643766 0.049173027 0.0019669211 -0.08654453 0.041305345 0.090478376 -0.05507379 -0.121949114 -0.057040714 -0.12391603 -0.074743 0.021636132 0.15538678 -0.06884224 -0.08261069
000040 e1 51 37 c8 27 32 ba 38 ef b1 12 33 f5 c4 00 38
       -0.060974557 0.15932061 0.108180664 -0.11014758 0.076709926 0.098346055 -0.13768448 0.11014758 -0.033437658 -0.15538678 0.03540458 0.10031298 -0.021636132 -0.11801527 0.0 0.11014758
000050 d9 b5 1d d4 4f 19 f7 c5 e3 e7 c9 04 28 50 f9 13
       -0.076709926 -0.14751908 0.057040714 -0.08654453 0.15538678 0.049173027 -0.01770229 -0.11604835 -0.057040714 -0.049173027 -0.108180664 0.007867685 0.07867685 0.1573537 -0.013768448 0.0373715
000060 53 af 3b b6 f4 2f 4f 1d 07 0d 24 aa fa 47 32 3e
       0.16325445 -0.15932061 0.11604835 -0.14555216 -0.023603054 0.09244529 0.15538678 0.057040714 0.013768448 0.025569975 0.07080916 -0.16915523 -0.011801527 0.1396514 0.098346055 0.121949114
000070 2e bc 48 e2 1c c8 ea e8 cf 12 0d f0 db 17 c5 28
       0.090478376 -0.13375063 0.14161833 -0.059007633 0.05507379 -0.11014758 -0.043272264 -0.047206108 -0.09637914 0.03540458 0.025569975 -0.03147074 -0.07277608 0.045239188 -0.11604835 0.07867685
000080 e9 1f 08 13 39 c9 1c 2d 37 e6 3f b9 0a c2 ad 27
       -0.045239188 0.060974557 0.01573537 0.0373715 0.112114504 -0.108180664 0.05507379 0.08851145 0.108180664 -0.05113995 0.12391603 -0.1396514 0.019669212 -0.121949114 -0.16325445 0.076709926
000090 ef fa 3f 11 c2 3a f1 55 b2 01 34 10 19 38 17 3c
       -0.033437658 -0.011801527 0.12391603 0.033437658 -0.121949114 0.11408143 -0.029503817 0.1671883 -0.15341985 0.0019669211 0.1022799 0.03147074 0.049173027 0.11014758 0.045239188 0.11801527
0000a0 4e 31 d4 14 f7 fa 40 dc fa 14 31 bb e8 3e 21 ad
       0.15341985 0.09637914 -0.08654453 0.039338425 -0.01770229 -0.011801527 0.12588295 -0.07080916 -0.011801527 0.039338425 0.09637914 -0.13571756 -0.047206108 0.121949114 0.0649084 -0.16325445
0000b0 06 af 35 32 43 f8 c9 0c e5 ab b8 fc e0 ed e8 54
       0.011801527 -0.15932061 0.10424682 0.098346055 0.13178372 -0.01573537 -0.108180664 0.023603054 -0.05310687 -0.1671883 -0.14161833 -0.007867685 -0.06294148 -0.0373715 -0.047206108 0.16522138
0000c0 b4 cd a4 b9 1d cb dc fb af 1e 0f 02 12 fd 27 2a
       -0.149486 -0.10031298 -0.18095675 -0.1396514 0.057040714 -0.10424682 -0.07080916 -0.009834606 -0.15932061 0.059007633 0.029503817 0.0039338423 0.03540458 -0.0059007634 0.076709926 0.08261069
0000d0 de bd 2c 24 f6 4b e1 d4 e3 19 20 0f 1a fc 2d 19
       -0.066875316 -0.13178372 0.08654453 0.07080916 -0.019669212 0.14751908 -0.060974557 -0.08654453 -0.057040714 0.049173027 0.06294148 0.029503817 0.05113995 -0.007867685 0.08851145 0.049173027
0000e0 08 0c 4b 27 27 48 51 23 b4 4d 4d de e2 d3 f9 e8
       0.01573537 0.023603054 0.14751908 0.076709926 0.076709926 0.14161833 0.15932061 0.06884224 -0.149486 0.15145293 0.15145293 -0.066875316 -0.059007633 -0.08851145 -0.013768448 -0.047206108
0000f0 f2 11 1a 01 e2 50 c1 c6 a9 0e f4 c3 f9 41 ff e8
       -0.027536895 0.033437658 0.05113995 0.0019669211 -0.059007633 0.1573537 -0.12391603 -0.11408143 -0.17112213 0.027536895 -0.023603054 -0.11998219 -0.013768448 0.12784988 -0.0019669211 -0.047206108

973_attr i1 [32, 64] scale=0.0014139777 zero_point=0
000000 48 dc 35 19 d9 36 21 3d bd 2f 0d 23 ee 03 f3 2c
       0.101806395 -0.050903197 0.074940816 0.035349444 -0.05514513 0.076354794 0.046661265 0.08625264 -0.09473651 0.06645695 0.018381711 0.04948922 -0.025451599 0.004241933 -0.018381711 0.06221502
000010 06 45 ab bc 05 19 2a 4e 57 4e 24 d5 e5 2d 32 36
       0.008483866 0.09756446 -0.1201881 -0.09615049 0.0070698885 0.035349444 0.059387065 0.11029026 0.12301606 0.11029026 0.050903197 -0.06080104 -0.038177397 0.063628994 0.07069889 0.076354794
000020 18 a9 08 d9 b2 49 4c fd cc 02 38 38 1e c2 2f 4e
       0.033935465 -0.12301606 0.011311822 -0.05514513 -0.11029026 0.10322037 0.1074623 -0.004241933 -0.073526844 0.0028279554 0.07918275 0.07918275 0.04241933 -0.087666616 0.06645695 0.11029026
000030 d1 ce 2d 12 e4 50 b7 ce 4b ab ec 4f 52 a9 04 55
       -0.06645695 -0.07069889 0.063628994 0.025451599 -0.039591376 0.11311822 -0.10322037 -0.07069889 0.10604833 -0.1201881 -0.028279554 0.11170424 0.11594617 -0.12301606 0.005655911 0.1201881
000040 dc b8 21 48 ce 16 10 dc d4 dd eb cd 08 fe f6 cf
       -0.050903197 -0.101806395 0.046661265 0.101806395 -0.07069889 0.03110751 0.022623643 -0.050903197 -0.06221502 -0.04948922 -0.029693533 -0.072112866 0.011311822 -0.0028279554 -0.014139777 -0.06928491
000050 be a6 16 f4 e1 ec 0f 23 1d 29 dd fd e1 bb fd 07
       -0.09332253 -0.12725799 0.03110751 -0.016967732 -0.043833308 -0.028279554 0.021209665 0.04948922 0.041005354 0.057973087 -0.04948922 -0.004241933 -0.043833308 -0.09756446 -0.004241933 0.009897844
000060 bd cd b7 bf 48 30 0f 19 ff eb 40 dc 19 0e 47 e0
       -0.09473651 -0.072112866 -0.10322037 -0.09190855 0.101806395 0.06787093 0.021209665 0.035349444 -0.0014139777 -0.029693533 0.09049457 -0.050903197 0.035349444 0.019795688 0.100392416 -0.045247287
000070 fb 10 2d c3 a1 d7 00 d4 e3 16 c7 4f 0f 10 c6 c2
       -0.0070698885 0.022623643 0.063628994 -0.08625264 -0.13432789 -0.057973087 0.0 -0.06221502 -0.041005354 0.03110751 -0.08059673 0.11170424 0.021209665 0.022623643 -0.08201071 -0.087666616
000080 10 21 29 59 bb 4d ef c0 f1 23 a6 48 28 0d 47 c4
       0.022623643 0.046661265 0.057973087 0.12584402 -0.09756446 0.10887628 -0.024037622 -0.09049457 -0.021209665 0.04948922 -0.12725799 0.101806395 0.05655911 0.018381711 0.100392416 -0.08483866
000090 de b7 f1 ef 00 c9 2c e0 1f 49 ec ed 13 02 f7 bd
       -0.048075244 -0.10322037 -0.021209665 -0.024037622 0.0 -0.07776877 0.06221502 -0.045247287 0.043833308 0.10322037 -0.028279554 -0.026865575 0.026865575 0.0028279554 -0.012725799 -0.09473651
0000a0 4d b3 49 0c 5b af 3a 1c e7 b6 b1 09 ab 1f 0f 44
       0.10887628 -0.10887628 0.10322037 0.016967732 0.12867197 -0.114532195 0.08201071 0.039591376 -0.035349444 -0.10463435 -0.11170424 0.012725799 -0.1201881 0.043833308 0.021209665 0.09615049
0000b0 d4 04 ff 37 d1 01 1f f4 b1 fe dd 0a d9 c2 e8 07
       -0.06221502 0.005655911 -0.0014139777 0.07776877 -0.06645695 0.0014139777 0.043833308 -0.016967732 -0.11170424 -0.0028279554 -0.04948922 0.014139777 -0.05514513 -0.087666616 -0.033935465 0.009897844
0000c0 fe c5 4e a5 d0 fa d9 27 ca fc 3c d0 02 0d c9 cc
       -0.0028279554 -0.08342469 0.11029026 -0.12867197 -0.06787093 -0.008483866 -0.05514513 0.05514513 -0.076354794 -0.005655911 0.08483866 -0.06787093 0.0028279554 0.018381711 -0.07776877 -0.073526844
0000d0 ff e8 39 b6 19 f1 31 43 e2 f6 d3 4e 23 24 29 ba
       -0.0014139777 -0.033935465 0.08059673 -0.10463435 0.035349444 -0.021209665 0.06928491 0.09473651 -0.04241933 -0.014139777 -0.063628994 0.11029026 0.04948922 0.050903197 0.057973087 -0.09897844
0000e0 b3 c1 dc f5 df 21 1f d1 e1 a8 cd e2 4d b4 a8 15
       -0.10887628 -0.089080594 -0.050903197 -0.015553755 -0.046661265 0.046661265 0.043833308 -0.06645695 -0.043833308 -0.12443004 -0.072112866 -0.04241933 0.10887628 -0.1074623 -0.12443004 0.029693533
0000f0 4a 1a d2 a7 17 a9 b0 c1 b6 07 09 13 d5 c7 d2 e5
       0.10463435 0.036763422 -0.06504297 -0.12584402 0.032521486 -0.12301606 -0.11311822 -0.089080594 -0.10463435 0.009897844 0.012725799 0.026865575 -0.06080104 -0.08059673 -0.06504297 -0.038177397

810 i1 [1, 64] scale=0.018797858 zero_point=22
000000 15 cb b0 f8 03 40 c9 63 20 5b 49 5f 0b 3b 0f 57
       -0.018797858 -1.4098393 -1.9173815 -0.56393576 -0.3571593 0.78951 -1.447435 1.447435 0.18797858 1.2970521 0.95869076 1.3722436 -0.20677644 0.69552076 -0.131585 1.2218608
000010 28 3f 0b 32 07 80 49 1e 51 0e 50 27 b6 a7 57 f7
       0.33836144 0.77071214 -0.20677644 0.52634 -0.28196788 -2.8196785 0.95869076 0.15038286 1.1090736 -0.15038286 1.0902758 0.31956357 -1.8045943 -2.0865622 1.2218608 -0.5827336
000020 4b 2e 07 f0 0e 19 e1 a7 d4 06 e3 05 58 50 ed f5
       0.99628645 0.45114857 -0.28196788 -0.7143186 -0.15038286 0.05639357 -0.99628645 -2.0865622 -1.2406586 -0.30076572 -0.95869076 -0.31956357 1.2406586 1.0902758 -0.77071214 -0.6203293
000030 42 ee a9 f7 7f b8 29 2f 2b e6 f8 09 fd ed fe f8
       0.82710576 -0.7519143 -2.0489664 -0.5827336 1.973775 -1.7669986 0.3571593 0.46994644 0.394755 -0.90229714 -0.56393576 -0.24437214 -0.46994644 -0.77071214 -0.45114857 -0.56393576

857_attr i1 [64, 32] scale=0.0020247216 zero_point=0
000000 1a ee b0 25 c6 1a cd fc 20 34 4a e5 56 28 58 39
       0.052642763 -0.036444988 -0.16197772 0.0749147 -0.11743385 0.052642763 -0.1032608 -0.008098886 0.06479109 0.105285525 0.1498294 -0.054667484 0.17412606 0.08098886 0.1781755 0.11540913
000010 c5 57 0e 1c d0 58 2f be ba 19 02 50 f1 13 f6 ed
       -0.11945857 0.17615078 0.028346103 0.056692205 -0.09718664 0.1781755 0.095161915 -0.13363163 -0.14173052 0.05061804 0.004049443 0.16197772 -0.030370824 0.03846971 -0.020247215 -0.03846971
000020 b2 aa d5 cc 23 b3 03 3b 20 cb 33 2e 4c 33 ac 33
       -0.15792829 -0.17412606 -0.08706303 -0.105285525 0.07086526 -0.15590356 0.006074165 0.11945857 0.06479109 -0.10731024 0.1032608 0.09313719 0.15387884 0.1032608 -0.17007661 0.1032608
000030 10 25 0e d9 2c f3 af 0e 4c 41 fa 24 27 c5 f2 da
       0.032395545 0.0749147 0.028346103 -0.078964144 0.08908775 -0.026321381 -0.16400245 0.028346103 0.15387884 0.1316069 -0.01214833 0.072889976 0.078964144 -0.11945857 -0.028346103 -0.07693942
000040 ed ae ba 34 2e bf 02 f7 10 f9 eb f6 41 e8 f9 bc
       -0.03846971 -0.16602717 -0.14173052 0.105285525 0.09313719 -0.1316069 0.004049443 -0.018222494 0.032395545 -0.014173051 -0.042519152 -0.020247215 0.1316069 -0.04859332 -0.014173051 -0.13768107
000050 ec dd 16 1c 2c 04 30 e3 52 55 f1 f8 4c 06 59 e8
       -0.04049443 -0.07086526 0.044543874 0.056692205 0.08908775 0.008098886 0.09718664 -0.058716927 0.16602717 0.17210133 -0.030370824 -0.016197773 0.15387884 0.01214833 0.18020022 -0.04859332
000060 3d 37 08 10 b4 50 b1 f9 0c b1 f3 36 02 bf 30 0e
       0.123508014 0.111359686 0.016197773 0.032395545 -0.15387884 0.16197772 -0.159953 -0.014173051 0.02429666 -0.159953 -0.026321381 0.10933497 0.004049443 -0.1316069 0.09718664 0.028346103
000070 c3 c9 db 3d 46 31 d6 c6 d5 26 c3 d5 ff 34 f8 ba
       -0.123508014 -0.111359686 -0.0749147 0.123508014 0.14173052 0.09921136 -0.085038304 -0.11743385 -0.08706303 0.07693942 -0.123508014 -0.08706303 -0.0020247216 0.105285525 -0.016197773 -0.14173052
000080 dc c9 05 1e b8 ec cb ca 07 be 3c 11 06 43 56 37
       -0.072889976 -0.111359686 0.010123608 0.060741648 -0.14577995 -0.04049443 -0.10731024 -0.10933497 0.014173051 -0.13363163 0.121483296 0.034420267 0.01214833 0.13565634 0.17412606 0.111359686
000090 0c b7 45 ad bb d0 be d4 50 26 a9 0e dc aa 3c 4c
       0.02429666 -0.14780468 0.13970579 -0.1680519 -0.13970579 -0.09718664 -0.13363163 -0.08908775 0.16197772 0.07693942 -0.17615078 0.028346103 -0.072889976 -0.17412606 0.121483296 0.15387884
0000a0 45 fb 4b f5 c2 e9 c3 e6 51 c0 b7 2e a9 ee 41 3e
       0.13970579 -0.010123608 0.15185411 -0.022271937 -0.12553273 -0.046568595 -0.123508014 -0.052642763 0.16400245 -0.12958218 -0.14780468 0.09313719 -0.17615078 -0.036444988 0.1316069 0.12553273
0000b0 e0 24 44 d9 4c d1 ff 1c ad bb b8 24 0a c1 34 fb
       -0.06479109 0.072889976 0.13768107 -0.078964144 0.15387884 -0.095161915 -0.0020247216 0.056692205 -0.1680519 -0.13970579 -0.14577995 0.072889976 0.020247215 -0.12755746 0.105285525 -0.010123608
0000c0 cc 26 32 49 02 34 1c 4e de ba 2a 14 0a c8 0a 3f
       -0.105285525 0.07693942 0.10123608 0.14780468 0.004049443 0.105285525 0.056692205 0.15792829 -0.06884053 -0.14173052 0.085038304 0.04049443 0.020247215 -0.11338441 0.020247215 0.12755746
0000d0 32 e2 e1 06 20 2c e9 d2 24 e0 3c 4e 0b bc e7 4b
       0.10123608 -0.060741648 -0.062766366 0.01214833 0.06479109 0.08908775 -0.046568595 -0.09313719 0.072889976 -0.06479109 0.121483296 0.15792829 0.022271937 -0.13768107 -0.05061804 0.15185411
0000e0 ee bf ea b0 3e c7 19 2d b9 2b 1e f0 dc fd ba 5a
       -0.036444988 -0.1316069 -0.044543874 -0.16197772 0.12553273 -0.11540913 0.05061804 0.09111247 -0.14375523 0.08706303 0.060741648 -0.032395545 -0.072889976 -0.006074165 -0.14173052 0.18222494
0000f0 ea 2e 1c e8 0c 28 cf ee e0 ee d3 3a 07 d4 cf f8
       -0.044543874 0.09313719 0.056692205 -0.04859332 0.02429666 0.08098886 -0.09921136 -0.036444988 -0.06479109 -0.036444988 -0.09111247 0.11743385 0.014173051 -0.08908775 -0.09921136 -0.016197773

892_attr i1 [64, 32] scale=0.0019669211 zero_point=0
000000 af b6 4f aa d3 29 e2 4a f1 f0 c7 fa f4 04 31 32
       -0.15932061 -0.14555216 0.15538678 -0.16915523 -0.08851145 0.080643766 -0.059007633 0.14555216 -0.029503817 -0.03147074 -0.112114504 -0.011801527 -0.023603054 0.007867685 0.09637914 0.098346055
000010 3d e0 22 3c e6 45 1e c6 1c b7 35 08 2f 19 54 fd
       0.11998219 -0.06294148 0.066875316 0.11801527 -0.05113995 0.13571756 0.059007633 -0.11408143 0.05507379 -0.14358525 0.10424682 0.01573537 0.09244529 0.049173027 0.16522138 -0.0059007634
000020 c1 a3 16 d3 11 f4 01 f6 db 05 36 bd 1c da 1b 26
       -0.12391603 -0.18292366 0.043272264 -0.08851145 0.033437658 -0.023603054 0.0019669211 -0.019669212 -0.07277608 0.009834606 0.10621374 -0.13178372 0.05507379 -0.074743 0.05310687 0.074743
000030 4f 29 19 01 d4 15 2e e4 c2 e3 c1 da 0b 4f dd d6
       0.15538678 0.080643766 0.049173027 0.0019669211 -0.08654453 0.041305345 0.090478376 -0.05507379 -0.121949114 -0.057040714 -0.12391603 -0.074743 0.021636132 0.15538678 -0.06884224 -0.08261069
000040 e1 51 37 c8 27 32 ba 38 ef b1 12 33 f5 c4 00 38
       -0.060974557 0.15932061 0.108180664 -0.11014758 0.076709926 0.098346055 -0.13768448 0.11014758 -0.033437658 -0.15538678 0.03540458 0.10031298 -0.021636132 -0.11801527 0.0 0.11014758
000050 d9 b5 1d d4 4f 19 f7 c5 e3 e7 c9 04 28 50 f9 13
       -0.076709926 -0.14751908 0.057040714 -0.08654453 0.15538678 0.049173027 -0.01770229 -0.11604835 -0.057040714 -0.049173027 -0.108180664 0.007867685 0.07867685 0.1573537 -0.013768448 0.0373715
000060 53 af 3b b6 f4 2f 4f 1d 07 0d 24 aa fa 47 32 3e
       0.16325445 -0.15932061 0.11604835 -0.14555216 -0.023603054 0.09244529 0.15538678 0.057040714 0.013768448 0.025569975 0.07080916 -0.16915523 -0.011801527 0.1396514 0.098346055 0.121949114
000070 2e bc 48 e2 1c c8 ea e8 cf 12 0d f0 db 17 c5 28
       0.090478376 -0.13375063 0.14161833 -0.059007633 0.05507379 -0.11014758 -0.043272264 -0.047206108 -0.09637914 0.03540458 0.025569975 -0.03147074 -0.07277608 0.045239188 -0.11604835 0.07867685
000080 e9 1f 08 13 39 c9 1c 2d 37 e6 3f b9 0a c2 ad 27
       -0.045239188 0.060974557 0.01573537 0.0373715 0.112114504 -0.108180664 0.05507379 0.08851145 0.108180664 -0.05113995 0.12391603 -0.1396514 0.019669212 -0.121949114 -0.16325445 0.076709926
000090 ef fa 3f 11 c2 3a f1 55 b2 01 34 10 19 38 17 3c
       -0.033437658 -0.011801527 0.12391603 0.033437658 -0.121949114 0.11408143 -0.029503817 0.1671883 -0.15341985 0.0019669211 0.1022799 0.03147074 0.049173027 0.11014758 0.045239188 0.11801527
0000a0 4e 31 d4 14 f7 fa 40 dc fa 14 31 bb e8 3e 21 ad
       0.15341985 0.09637914 -0.08654453 0.039338425 -0.01770229 -0.011801527 0.12588295 -0.07080916 -0.011801527 0.039338425 0.09637914 -0.13571756 -0.047206108 0.121949114 0.0649084 -0.16325445
0000b0 06 af 35 32 43 f8 c9 0c e5 ab b8 fc e0 ed e8 54
       0.011801527 -0.15932061 0.10424682 0.098346055 0.13178372 -0.01573537 -0.108180664 0.023603054 -0.05310687 -0.1671883 -0.14161833 -0.007867685 -0.06294148 -0.0373715 -0.047206108 0.16522138
0000c0 b4 cd a4 b9 1d cb dc fb af 1e 0f 02 12 fd 27 2a
       -0.149486 -0.10031298 -0.18095675 -0.1396514 0.057040714 -0.10424682 -0.07080916 -0.009834606 -0.15932061 0.059007633 0.029503817 0.0039338423 0.03540458 -0.0059007634 0.076709926 0.08261069
0000d0 de bd 2c 24 f6 4b e1 d4 e3 19 20 0f 1a fc 2d 19
       -0.066875316 -0.13178372 0.08654453 0.07080916 -0.019669212 0.14751908 -0.060974557 -0.08654453 -0.057040714 0.049173027 0.06294148 0.029503817 0.05113995 -0.007867685 0.08851145 0.049173027
0000e0 08 0c 4b 27 27 48 51 23 b4 4d 4d de e2 d3 f9 e8
       0.01573537 0.023603054 0.14751908 0.076709926 0.076709926 0.14161833 0.15932061 0.06884224 -0.149486 0.15145293 0.15145293 -0.066875316 -0.059007633 -0.08851145 -0.013768448 -0.047206108
0000f0 f2 11 1a 01 e2 50 c1 c6 a9 0e f4 c3 f9 41 ff e8
       -0.027536895 0.033437658 0.05113995 0.0019669211 -0.059007633 0.1573537 -0.12391603 -0.11408143 -0.17112213 0.027536895 -0.023603054 -0.11998219 -0.013768448 0.12784988 -0.0019669211 -0.047206108

fuse_attr_188 i1 [3, 1, 1, 3] scale=0.021868048 zero_point=0
000000 5e bf b0 81 3b d1 11 c8 43
       2.0555966 -1.4214231 -1.7494439 -2.7772422 1.2902149 -1.0277983 0.37175682 -1.2246107 1.4651592

886_attr i1 [32, 2048] scale=0.00024331649 zero_point=0
000000 d8 ab 1a 13 b1 f9 b8 29 50 56 4f 12 e1 b0 ba d7
       -0.00973266 -0.0206819 0.006326229 0.0046230135 -0.019222002 -0.0017032154 -0.017518787 0.009975976 0.01946532 0.020925218 0.019222002 0.0043796967 -0.0075428113 -0.01946532 -0.017032154 -0.009975976
000010 af ae e6 c9 e0 03 4e c1 db 32 4d 04 fd 03 e2 4b
       -0.019708635 -0.019951953 -0.006326229 -0.013382407 -0.0077861277 0.00072994945 0.018978687 -0.015328939 -0.00900271 0.012165825 0.01873537 0.00097326597 -0.00072994945 0.00072994945 -0.007299495 0.018248737
000020 f3 22 59 ce 33 07 f9 02 ec a9 d8 5a 0d 3d 20 e7
       -0.0031631144 0.008272761 0.021655168 -0.012165825 0.012409141 0.0017032154 -0.0017032154 0.00048663298 -0.00486633 -0.021168536 -0.00973266 0.021898484 0.0031631144 0.014842306 0.0077861277 -0.0060829124
000030 de 03 bc ae f9 33 fd b0 c2 a9 b7 18 b0 d8 e1 29
       -0.008272761 0.00072994945 -0.016545521 -0.019951953 -0.0017032154 0.012409141 -0.00072994945 -0.01946532 -0.015085623 -0.021168536 -0.017762104 0.0058395956 -0.01946532 -0.00973266 -0.0075428113 0.009975976
000040 af 0d b7 eb 23 e9 11 cd 53 00 da 3a 02 2c 2a 52
       -0.019708635 0.0031631144 -0.017762104 -0.0051096464 0.008516077 -0.005596279 0.0041363803 -0.012409141 0.020195268 0.0 -0.009246027 0.014112356 0.00048663298 0.0107059255 0.010219293 0.019951953
000050 4e 18 d0 fe 3d 4c d4 05 e4 d1 ea f4 12 bd 31 45
       0.018978687 0.0058395956 -0.011679191 -0.00048663298 0.014842306 0.018492054 -0.0107059255 0.0012165825 -0.0068128617 -0.011435875 -0.0053529628 -0.0029197978 0.0043796967 -0.016302206 0.0119225085 0.016788838
000060 be 4c cb f0 cd b1 f0 c0 cc 43 46 c0 b2 09 14 05
       -0.016058888 0.018492054 -0.012895774 -0.0038930639 -0.012409141 -0.019222002 -0.0038930639 -0.0155722555 -0.012652458 0.016302206 0.017032154 -0.0155722555 -0.018978687 0.0021898483 0.00486633 0.0012165825
000070 1c 25 b7 f0 4e b6 cb 36 f9 34 e2 fb 5b 58 ee fe
       0.0068128617 0.00900271 -0.017762104 -0.0038930639 0.018978687 -0.01800542 -0.012895774 0.0131390905 -0.0017032154 0.012652458 -0.007299495 -0.0012165825 0.022141801 0.021411851 -0.0043796967 -0.00048663298
000080 00 2f 18 43 fb 37 bb d8 51 1b 14 da 3d f7 4d d3
       0.0 0.011435875 0.0058395956 0.016302206 -0.0012165825 0.013382407 -0.016788838 -0.00973266 0.019708635 0.0065695453 0.00486633 -0.009246027 0.014842306 -0.0021898483 0.01873537 -0.010949242
000090 28 1a dd 1b 1b 46 53 16 e3 33 dd e4 ef b6 d7 b7
       0.00973266 0.006326229 -0.008516077 0.0065695453 0.0065695453 0.017032154 0.020195268 0.0053529628 -0.007056178 0.012409141 -0.008516077 -0.0068128617 -0.0041363803 -0.01800542 -0.009975976 -0.017762104
0000a0 cd 52 33 0e c7 db 2e fa 3f e4 0d d4 0d ca 5a e6
       -0.012409141 0.019951953 0.012409141 0.0034064308 -0.01386904 -0.00900271 0.011192558 -0.0014598989 0.015328939 -0.0068128617 0.0031631144 -0.0107059255 0.0031631144 -0.0131390905 0.021898484 -0.006326229
0000b0 c7 35 2e d5 50 08 cd 09 05 39 45 06 f2 e5 e6 16
       -0.01386904 0.012895774 0.011192558 -0.010462609 0.01946532 0.0019465319 -0.012409141 0.0021898483 0.0012165825 0.01386904 0.016788838 0.0014598989 -0.0034064308 -0.0065695453 -0.006326229 0.0053529628
0000c0 45 4a c0 f8 bc 37 13 e0 51 25 f2 e3 34 ab ee d8
       0.016788838 0.01800542 -0.0155722555 -0.0019465319 -0.016545521 0.013382407 0.0046230135 -0.0077861277 0.019708635 0.00900271 -0.0034064308 -0.007056178 0.012652458 -0.0206819 -0.0043796967 -0.00973266
0000d0 2b 56 da e3 3e de e3 f4 3d cd 0c 02 1b c5 16 28
       0.010462609 0.020925218 -0.009246027 -0.007056178 0.015085623 -0.008272761 -0.007056178 -0.0029197978 0.014842306 -0.012409141 0.0029197978 0.00048663298 0.0065695453 -0.014355673 0.0053529628 0.00973266
0000e0 b4 2c c6 eb 46 48 24 d2 27 f6 fc d2 59 b2 de ed
       -0.018492054 0.0107059255 -0.014112356 -0.0051096464 0.017032154 0.017518787 0.008759393 -0.011192558 0.0094893435 -0.002433165 -0.00097326597 -0.011192558 0.021655168 -0.018978687 -0.008272761 -0.0046230135
0000f0 de ef 40 2f f4 36 48 fb f1 0e cc a6 ef e0 e1 df
       -0.008272761 -0.0041363803 0.0155722555 0.011435875 -0.0029197978 0.0131390905 0.017518787 -0.0012165825 -0.0036497475 0.0034064308 -0.012652458 -0.021898484 -0.0041363803 -0.0077861277 -0.0075428113 -0.008029444

fuse_attr_193 i1 [3, 1, 1, 3] scale=0.0032339275 zero_point=0
000000 c8 8c 0d 46 84 b9 80 71 9a
       -0.18109994 -0.3751356 0.04204106 0.22637492 -0.40100703 -0.22960885 -0.41394272 0.3654338 -0.3298606

fuse_attr_180 i1 [8, 3, 3, 8] scale=0.0035495544 zero_point=0
000000 6a c1 b8 9a 1f a3 9a d2 a6 11 55 f8 60 b2 6d 43
       0.37625277 -0.22362192 -0.2555679 -0.36205456 0.11003619 -0.33010855 -0.36205456 -0.1632795 -0.3194599 0.060342424 0.30171213 -0.028396435 0.34075722 -0.27686524 0.38690144 0.23782015
000010 f5 31 29 97 bc bb 13 0c 97 24 58 3e dc f6 35 30
       -0.0390451 0.17392817 0.14553173 -0.37270322 -0.2413697 -0.24491926 0.06744153 0.042594653 -0.37270322 0.12778395 0.3123608 0.22007237 -0.12778395 -0.035495542 0.18812639 0.17037861
000020 e8 6d 00 f7 42 aa 24 b4 9a 08 67 03 1b 13 13 ea
       -0.085189305 0.38690144 0.0 -0.03194599 0.23427059 -0.30526167 0.12778395 -0.26976612 -0.36205456 0.028396435 0.3656041 0.010648663 0.095837966 0.06744153 0.06744153 -0.0780902
000030 bd 62 54 1c ed ee 6b 1f 81 fb fe c2 e2 6b dd 4b
       -0.23782015 0.34785634 0.29816258 0.09938753 -0.06744153 -0.06389198 0.37980232 0.11003619 -0.45079342 -0.017747771 -0.007099109 -0.22007237 -0.10648663 0.37980232 -0.1242344 0.26621658
000040 12 4f b7 c2 dc 8a 76 32 ba fd 07 b3 af ed 1f 0e
       0.06389198 0.2804148 -0.25911748 -0.22007237 -0.12778395 -0.4188474 0.4188474 0.17747772 -0.2484688 -0.010648663 0.024846882 -0.2733157 -0.2875139 -0.06744153 0.11003619 0.049693763
000050 04 27 c4 b1 1b 00 2d 52 b1 ca d3 21 22 46 bc 27
       0.014198218 0.13843262 -0.21297327 -0.2804148 0.095837966 0.0 0.15972994 0.29106346 -0.2804148 -0.19167593 -0.15972994 0.117135294 0.12068485 0.2484688 -0.2413697 0.13843262
000060 b4 3e 70 2c c7 f3 67 d1 e3 32 9b aa 47 e4 a9 37
       -0.26976612 0.22007237 0.3975501 0.1561804 -0.2023246 -0.046144206 0.3656041 -0.16682905 -0.10293708 0.17747772 -0.35850498 -0.30526167 0.25201836 -0.09938753 -0.30881122 0.19522549
000070 a3 a0 c1 46 be da 65 37 c1 5b e1 c6 54 fd 61 29
       -0.33010855 -0.34075722 -0.22362192 0.2484688 -0.23427059 -0.13488306 0.35850498 0.19522549 -0.22362192 0.32300946 -0.11003619 -0.20587416 0.29816258 -0.010648663 0.34430677 0.14553173
000080 43 23 61 a5 f7 4a 3f 1f 2a 15 03 54 09 42 b8 ac
       0.23782015 0.1242344 0.34430677 -0.32300946 -0.03194599 0.26266703 0.22362192 0.11003619 0.14908129 0.074540645 0.010648663 0.29816258 0.03194599 0.23427059 -0.2555679 -0.29816258
000090 ea 2a 24 e8 fb fe ce 1e ea ea ef bd fa 0c 2c d5
       -0.0780902 0.14908129 0.12778395 -0.085189305 -0.017747771 -0.007099109 -0.17747772 0.10648663 -0.0780902 -0.0780902 -0.060342424 -0.23782015 -0.021297326 0.042594653 0.1561804 -0.15263084
0000a0 11 07 19 cd da b9 c9 ed f0 37 3d c9 3b 15 21 2f
       0.060342424 0.024846882 0.08873886 -0.18102728 -0.13488306 -0.25201836 -0.19522549 -0.06744153 -0.05679287 0.19522549 0.21652281 -0.19522549 0.2094237 0.074540645 0.117135294 0.16682905
0000b0 37 df eb ec ff 21 43 d5 28 cd 44 f4 01 42 22 d8
       0.19522549 -0.117135294 -0.074540645 -0.070991084 -0.0035495544 0.117135294 0.23782015 -0.15263084 0.14198217 -0.18102728 0.2413697 -0.042594653 0.0035495544 0.23427059 0.12068485 -0.14198217
0000c0 2f 11 e1 de ea df ca 1c 40 e2 d0 f1 f7 3d 37 02
       0.16682905 0.060342424 -0.11003619 -0.12068485 -0.0780902 -0.117135294 -0.19167593 0.09938753 0.22717148 -0.10648663 -0.17037861 -0.053243317 -0.03194599 0.21652281 0.19522549 0.007099109
0000d0 d1 fd 41 21 eb fa 40 bf 1c 10 04 f1 c4 2a 22 d9
       -0.16682905 -0.010648663 0.23072104 0.117135294 -0.074540645 -0.021297326 0.22717148 -0.23072104 0.09938753 0.05679287 0.014198218 -0.053243317 -0.21297327 0.14908129 0.12068485 -0.13843262
0000e0 b3 34 c3 b2 5b b0 b0 d8 c3 35 64 20 59 55 55 a4
       -0.2733157 0.18457682 -0.21652281 -0.27686524 0.32300946 -0.28396434 -0.28396434 -0.14198217 -0.21652281 0.18812639 0.35495543 0.11358574 0.31591034 0.30171213 0.30171213 -0.326559
0000f0 55 a2 aa af be af d3 ce 1c c2 cd d5 ff c8 ab b2
       0.30171213 -0.3336581 -0.30526167 -0.2875139 -0.23427059 -0.2875139 -0.15972994 -0.17747772 0.09938753 -0.22007237 -0.18102728 -0.15263084 -0.0035495544 -0.19877505 -0.30171213 -0.27686524
